data.pth (torch, 9239 bytes, 6 tensors)

l1.weight f4 [8, 118]
000000 46 67 10 3e f8 3b c7 3e ee 72 6c 3f 6b 08 bb be
       0.14101896 0.3891294 0.9236287 -0.3652986
000010 a4 15 20 3f 64 0c cd 3e 7e e0 3a 3f 5b 53 0f bf
       0.6253302 0.40048516 0.729988 -0.55986565
000020 62 ea 32 bf d5 6b a9 be c9 b3 99 be 58 be 2b 3e
       -0.6988889 -0.33090082 -0.30019978 0.16771829
000030 0b 22 39 3e 45 c8 cc 3f 12 02 a1 be aa 9f 0c 3f
       0.18079393 1.5998617 -0.31446892 0.5493113
000040 ef 58 c5 be 98 e2 57 3f 57 37 62 3f d2 9e 4a 3f
       -0.38544413 0.8433013 0.8836569 0.7914859
000050 4b 88 1f bf ae 8b 21 bf eb 0f d0 3f 3f 4f 1f 3f
       -0.6231734 -0.6310376 1.6254858 0.62230295
000060 50 46 17 3f 29 16 06 3e ac 16 ac 3e ca fc 92 be
       0.59091663 0.13094391 0.33611047 -0.28708488
000070 d1 ab 75 bf d4 34 37 3f 1a b5 04 bf 10 c1 0e be
       -0.95965296 0.71564984 -0.5183884 -0.13940835
000080 d9 b9 b2 be 6d 62 7c bd 93 d0 54 3d c4 b0 29 3f
       -0.34907416 -0.061617304 0.051956724 0.6628535
000090 1d 82 bb 3e 8a 38 d1 3d f7 a5 80 bf e9 10 e2 3e
       0.36622706 0.10215862 -1.0050648 0.44153526
0000a0 77 26 4c 3f dd 07 46 3f c1 17 2e 3e 66 d1 f8 3e
       0.7974619 0.7735575 0.17001249 0.48597258
0000b0 f8 fb 11 3f ef 00 24 3f 1e 1d a0 3f a2 9d 45 3e
       0.570251 0.64063925 1.2508886 0.19298413
0000c0 f5 42 f5 3d b4 14 27 3e 72 2d 35 be 7f a2 24 3e
       0.11975662 0.16316491 -0.17693117 0.16077612
0000d0 d8 33 e9 be 37 90 5c 3f 1c fe 0d 3d 00 25 33 bf
       -0.45547366 0.86157554 0.034666166 -0.6997833
0000e0 e6 b0 2b bd 4c 30 4d 3e a0 fc be 3e 49 e1 ac 3e
       -0.04191675 0.20037955 0.37302113 0.3376563
0000f0 76 b6 19 3f 50 16 5e be 0d fb 1b 3d d9 43 08 3f
       0.6004404 -0.21688199 0.038081218 0.5322853
000100 4a 10 09 3f c0 3c ac 3d a3 dc 08 3d 0b 4a ef bd
       0.5354048 0.08410025 0.03341354 -0.116840445
000110 ad 67 fc be 03 2a af 3f 78 61 75 3f 4d 12 97 bd
       -0.49297848 1.3684696 0.9585185 -0.073765375
000120 75 7e d7 bc ac 25 4d 3e ed 2c 13 bf 2b 93 48 be
       -0.026305417 0.20033902 -0.57490426 -0.1958739
000130 5a 81 0b bf 42 f3 41 bf b4 b8 29 be 98 01 26 3f
       -0.5449425 -0.75761807 -0.16574365 0.6484618
000140 62 50 16 3f a8 16 f8 3e c2 2a 3b 3f 17 38 d8 3e
       0.58716404 0.48454785 0.7311212 0.42230293
000150 9b e3 09 3f 87 0d 22 3f c7 8f 10 bf 20 59 a3 bf
       0.53862923 0.6330189 -0.56469387 -1.2761574
000160 e6 86 99 3d 63 ff c0 be 14 c8 c4 be 91 99 37 3f
       0.07496433 -0.37694845 -0.38433897 0.717187
000170 7a bd 1b 3f e4 d6 a7 be b2 09 72 be ec f0 0a be
       0.60835993 -0.32781136 -0.23636511 -0.13568467
000180 e5 fc c9 3e e6 e1 26 3f 89 8e a2 bd 35 9f 4a 3d
       0.39450756 0.65188444 -0.07937343 0.049468238
000190 ed e7 fd 3e 57 3b f8 3e 51 79 25 3f 64 1d df be
       0.49591008 0.48482773 0.6463824 -0.4357711
0001a0 c5 0d a5 3e b7 bf 00 bf 79 5d 90 be 9b 79 91 bf
       0.32237068 -0.50292534 -0.28196314 -1.1365236
0001b0 5b 85 f5 be c1 89 d1 be 40 49 83 be 74 22 a4 be
       -0.47953305 -0.4092541 -0.25641823 -0.32057536
0001c0 4b af 39 3e a8 a2 15 3f 7d 29 8c 3f 3f e2 70 3e
       0.18133275 0.5845132 1.0950161 0.23523806
0001d0 65 22 2a bf 73 c2 7a 3f f9 ff 1e 3f a4 a7 39 3e
       -0.6645873 0.97952956 0.62109333 0.18130356
0001e0 ec 60 85 be d9 df bf 3f c1 f0 a0 3f 86 97 e0 3e
       -0.26050508 1.4990188 1.2573472 0.43865603
0001f0 81 c4 fc 3d 89 d1 f4 3e 23 e3 ac be 1f 9f 4e 3f
       0.12342168 0.47816113 -0.33767042 0.8071155
000200 69 22 db 3e 86 07 f1 bd 0b 30 1b 3f 5c 44 40 3f
       0.4279969 -0.11769013 0.6062018 0.7510431
000210 1d 3a 42 3f e0 77 50 bf 52 78 0c 3f 34 3f c5 3e
       0.75869924 -0.81432915 0.54871094 0.38524783
000220 de 00 9a 3e 21 ab 8d 3e 8c 6f e8 bd 12 b3 01 40
       0.30078787 0.27669623 -0.11349401 2.0265546
000230 4d ed 9a bf c8 67 ac be 33 97 94 bf eb ad 13 3e
       -1.2103668 -0.3367293 -1.1608642 0.14421813
000240 58 6d 26 bf 09 59 f2 be f2 2f b5 3d aa 65 b7 3e
       -0.65010595 -0.47333553 0.088470355 0.3581975
000250 20 9a bc 3e 6c e3 88 3f c1 2a d2 3e f9 41 97 3e
       0.36836338 1.0694404 0.41048244 0.2954252
000260 59 6a be 3f 06 e5 96 be 33 0d 5e be 49 db bc 3e
       1.4876205 -0.29471606 -0.21684723 0.3688605
000270 6e cf e6 3e 9b 76 93 3f 13 86 b3 3e 24 fd 22 bf
       0.4508013 1.152057 0.35063228 -0.6366751
000280 d8 c6 2b 3f ed 34 86 3e 02 5b 12 3e 51 6c c8 bc
       0.67100286 0.26212254 0.14292529 -0.024465712
000290 79 aa cd 3f 84 a1 db 3e ed 3f 1e 3f 48 93 cc 3e
       1.6067649 0.42896664 0.61816293 0.39956117
0002a0 3e 6b 3e 3f ea 4a c2 3e c3 74 64 3e 12 09 33 bf
       0.7438239 0.3794778 0.22310166 -0.69935715
0002b0 df a6 12 3f 34 e5 ba 3e 91 25 c1 be 17 ed 9e be
       0.57285875 0.36502993 -0.37723973 -0.3104026
0002c0 ce 02 f0 be b6 ee 3a be 4e 45 6e 3e 36 84 26 3f
       -0.4687714 -0.18255123 0.23268625 0.6504549
0002d0 16 18 25 3f 3c 61 6c 3e 42 68 6d 3e cc d5 9f bc
       0.6448988 0.23083967 0.23184302 -0.019511126
0002e0 ef 45 c4 3e 88 40 1b 3f 51 64 42 3e 52 9a 94 be
       0.38334605 0.6064534 0.1898358 -0.29023987
0002f0 82 30 71 be 8d 4d 5c be 85 02 b2 3e d4 b8 b2 be
       -0.2355366 -0.21513958 0.34767547 -0.34906638
000300 7d 7e 90 3e 10 c8 1b 3f ec 3b d6 bd ea 42 7b 3f
       0.28221503 0.60852146 -0.10460648 0.9814898
000310 97 6e ac bb bb e4 9e 3e 5e 16 22 bf 13 21 75 bf
       -0.005262207 0.31033882 -0.6331538 -0.9575359
000320 c2 b0 7c 3e 65 38 0e bf de af b2 3e 8b ae 8a 3e
       0.24676803 -0.555548 0.348998 0.2708629
000330 a2 85 43 3e 07 82 2b 3d 8a 95 d3 3e 65 b1 bd 3e
       0.19093946 0.04187205 0.41325027 0.37049404
000340 53 5a 33 3f eb c6 0b 3f d1 c8 88 bf 4b 20 14 3f
       0.700597 0.546004 -1.0686284 0.57861775
000350 6a 23 c5 3e c6 c1 14 3f 38 69 87 3e 05 3b b7 3f
       0.3850358 0.58108175 0.26447463 1.4314886
000360 91 6b 8d 3f 07 9d f6 3e ea bf 14 3f 73 fd 4a be
       1.1048452 0.48166677 0.5810534 -0.19823246
000370 10 71 bf be 15 ca 78 3f b3 d6 30 be 35 08 80 3e
       -0.37390947 0.9718335 -0.17269401 0.2500626
000380 90 41 12 3e 90 4d b8 3e b6 2d 05 bf fb 5d 06 bf
       0.14282823 0.35996675 -0.52022874 -0.5248715
000390 8c 58 e3 be 8a 6d 98 3e 03 f7 a3 3e 75 3a 6e be
       -0.44403493 0.29771072 0.32024392 -0.23264487
0003a0 c4 5f da 3c 27 41 66 3e e4 1d b1 be c6 0f 60 bc
       0.026656993 0.22485791 -0.34593117 -0.013675636
0003b0 b2 70 fa 3e 00 d2 48 3f 7d b2 49 3f 97 d1 12 3f
       0.48914105 0.78445435 0.78787977 0.5735106
0003c0 ed 24 0b 3d da 7c ac 3e c3 1a 2a 3f 6e 2a 0a 3f
       0.033970762 0.33689004 0.66447085 0.5397099
0003d0 b8 65 e5 be 55 19 aa be fe 6a 2f bf c7 a8 d3 3e
       -0.44804168 -0.33222452 -0.6852263 0.41339704
0003e0 dd e6 65 be ca a8 e1 3f e8 bb eb 3e 4a e3 44 3f
       -0.22451349 1.7629635 0.460418 0.76909316
0003f0 b8 fd 0d bf e9 56 a9 3f 1f fb 9f 3f 79 a1 a6 3f
       -0.5546527 1.3229648 1.2498511 1.3018028

l1.bias f4 [8]
000000 39 4c c9 3f 00 eb f7 3f f9 e9 35 3f 47 00 23 3f
       1.5726386 1.9368591 0.7106014 0.636723
000010 9c ef af 3f 18 eb b3 3e 3d 28 86 3f 61 75 91 3f
       1.3744998 0.351403 1.048103 1.1363946

l2.weight f4 [8, 8]
000000 0c 50 ed 3c d3 f5 08 be d5 be 9d 3d e6 3b a5 3d
       0.028968833 -0.13375024 0.07702414 0.08068065
000010 dc 29 1a be 10 bc ca bd 15 04 12 3d 9c 7b a0 be
       -0.1505503 -0.09899151 0.035648424 -0.31344306
000020 ac 23 23 3f 45 49 dd 3f 3b 23 c7 bf 94 cb 14 c0
       0.63726306 1.7287985 -1.5557626 -2.3249254
000030 21 7a 0b 40 ed 00 92 3e 9e bb 91 3f bf 41 a3 3f
       2.1793292 0.2851633 1.1385381 1.2754439
000040 97 50 8c 3f f2 cb 44 3f e2 2e 00 40 04 1f 0e bf
       1.0962094 0.76873696 2.0028615 -0.55516076
000050 2e 65 04 3f 1d 15 94 3f 71 61 e6 bf cf f6 80 bf
       0.5171689 1.1568943 -1.7998487 -1.007532
000060 72 41 a9 3f 84 2d 77 3f 34 90 e2 3e 35 45 34 3f
       1.3223097 0.96553826 0.44250643 0.704181
000070 cc 13 b6 3d c6 c1 10 3d b6 d6 09 40 7a 90 1b c0
       0.08890495 0.035341047 2.15373 -2.4306931
000080 1d 81 30 bf ef 8a 0a 40 15 0d 2e bf 23 5d 21 40
       -0.6894701 2.1647298 -0.6798871 2.5213096
000090 68 c1 ce 3f 59 d6 6f bf 73 f0 be bf f8 dd 4a 3f
       1.6152773 -0.93686444 -1.4917129 0.7924495
0000a0 81 81 a8 bc 10 53 a6 3f 2f 2a a9 bd cb c7 ad 3f
       -0.020569565 1.2994099 -0.08259999 1.3576597
0000b0 86 35 9f bf f7 17 1f 40 3e cc dd 3f 36 b9 2e 3f
       -1.2438209 2.4858377 1.7327955 0.6825136
0000c0 32 01 90 3f f5 e4 d7 bd 95 ca f6 3f ba c5 10 bf
       1.1250365 -0.10541717 1.9280573 -0.56551707
0000d0 7b 25 d4 3f f2 74 f6 bf ff f2 1a 40 cf cd a1 bf
       1.6573938 -1.9254439 2.4210813 -1.2640933
0000e0 21 b5 3e 40 45 bf 05 3f 43 bf bc 3f f3 f9 33 bf
       2.9798052 0.5224498 1.4745868 -0.7030327
0000f0 68 21 76 bf 12 7e b6 bf d7 33 be be f1 30 d3 3f
       -0.96144724 -1.4257224 -0.37148926 1.6499311

l2.bias f4 [8]
000000 db 17 73 be aa 93 4f 3f 79 e9 09 bf 05 dd 62 3e
       -0.23739569 0.8108469 -0.53871876 0.22154625
000010 95 c6 68 3f dd 14 57 3e 75 e7 6f 3f 27 31 b9 3f
       0.9092801 0.21004052 0.9371255 1.4468125

l3.weight f4 [35, 8]
000000 f4 1e 56 3e df e8 d7 be 2f 35 15 bf 26 20 8c 3e
       0.20910245 -0.42169854 -0.58284277 0.27368277
000010 83 b1 11 3f fc 20 dc bd b5 c6 d4 bd 5b e9 5e bf
       0.56911486 -0.10748479 -0.10389463 -0.8707482
000020 dd 05 b4 be 15 a2 6b 3f 06 3c 38 3e b0 8c c3 bf
       -0.35160723 0.9204419 0.17991647 -1.527731
000030 86 0c 9c bb 86 a1 d4 be 3a 99 ac bf e5 c1 db be
       -0.004762235 -0.41529483 -1.3484261 -0.42921367
000040 44 81 c0 be 97 5c a4 bf 8a c0 1b 3f 35 28 da be
       -0.37598622 -1.2840756 0.60840666 -0.426088
000050 18 4a b0 bf ee df 0a c0 41 a4 22 3f 26 02 52 3f
       -1.3772612 -2.1699176 0.6353188 0.8203453
000060 f4 01 19 3e 51 4a 45 3d 5f 89 07 3e f5 6a d3 3b
       0.14942151 0.048166577 0.13235997 0.0064519593
000070 d0 bf 54 bf 79 02 f3 bd 9f a7 18 bf 79 56 59 3e
       -0.8310518 -0.11865706 -0.5963077 0.21224393
000080 31 49 95 3e 92 0a 98 3d d1 d6 99 bf a0 e0 f5 3d
       0.29157403 0.07423891 -1.2018682 0.120057344
000090 93 15 38 c0 b6 c2 67 3d 8d f4 a5 3e 00 8a 35 3f
       -2.8763168 0.056582175 0.3241314 0.70913696
0000a0 2e 32 22 be 1b b1 e0 be 92 f8 fc 3d 5e bc 12 3e
       -0.15839455 -0.4388512 0.123520985 0.14329669
0000b0 f5 d6 2a 3e 41 5b 84 ba e0 71 4a c0 6f 3e 46 3e
       0.16683562 -0.0010097997 -3.1632004 0.19359754
0000c0 37 32 2d be 8e a4 d6 bf 69 3d 1e c0 a1 15 13 c0
       -0.16913687 -1.6768968 -2.4724982 -2.2981951
0000d0 d3 99 88 3d 33 ce 88 3f a1 26 39 be b9 d4 cd bf
       0.06669965 1.0687927 -0.18081142 -1.6080543
0000e0 21 f8 82 bd c2 ed e4 bf 07 75 04 3f b8 d9 b0 bf
       -0.06394983 -1.7885058 0.5174107 -1.3816442
0000f0 de 82 4d 3f 7a d3 b6 3e a1 46 1a bf bc 97 11 c0
       0.8027781 0.3570822 -0.6026402 -2.2748861
000100 5a bb 27 be f4 aa c2 3e 1a e6 a7 3e d6 dd aa bd
       -0.16380063 0.38021052 0.3279274 -0.08343093
000110 d0 6a d8 3e 1d 4a 3b be 3d 0e e7 bf a2 7a 44 c0
       0.4226899 -0.1828999 -1.805122 -3.069985
000120 f4 ad 9e 3e e1 63 52 be 5a 60 28 3f d4 1c 94 3c
       0.3099209 -0.20545913 0.6577202 0.018080153
000130 69 e1 2c 3e 6f ce 76 be 19 82 ea be 48 a3 13 c0
       0.16882862 -0.24102186 -0.45802382 -2.306841
000140 ae 16 e7 3d ca c0 64 3e d2 58 d0 3e 60 ec 68 3e
       0.11283623 0.22339168 0.40692765 0.2274642
000150 3e b9 1d c0 7f f9 ad bf aa 50 44 3f a7 5c 8f 3d
       -2.4644313 -1.3591765 0.76685584 0.07000094
000160 31 09 27 be 15 71 28 c0 eb 15 d0 be 9e d6 bf be
       -0.163121 -2.631902 -0.40641722 -0.37468427
000170 2d ef 47 3f e6 c5 96 bb fa df bf be 30 e2 f7 3d
       0.7809933 -0.004601228 -0.37475568 0.12103689
000180 93 fb fc 3a 84 6d 5d b9 f1 9e 51 3e 5c a9 48 c0
       0.0019301049 -0.00021117 0.20470788 -3.1353369
000190 fc 3c 51 bf f2 31 29 be 64 d7 af bf 60 4a 84 3f
       -0.8173368 -0.16522959 -1.3737607 1.0335197
0001a0 e5 0d ca be 0b 8d 4d c0 5d c1 82 3e b2 b1 ff 3e
       -0.39463726 -3.2117336 0.2553815 0.49940258
0001b0 78 17 3e be af ee 20 bf 23 93 8a 3d 85 e9 a0 3e
       -0.1856364 -0.628642 0.06766345 0.3142816
0001c0 e2 d3 7f 3e 9e d9 25 3f f1 3c 58 c0 6e f1 af be
       0.2498317 0.6478518 -3.3787196 -0.34363884
0001d0 78 73 80 3d 43 dd b1 3e 13 bc cd bf f2 d9 81 bf
       0.06272024 0.34739122 -1.6073021 -1.0144637
0001e0 b5 8a 8b 3c 47 c0 98 bf f6 82 33 c0 02 c9 b6 3d
       0.017033914 -1.1933678 -2.8048682 0.08925058
0001f0 eb 4e 58 3f 9b 1a e4 3e 20 16 5c bf cb 09 12 c0
       0.8449542 0.44551548 -0.8597126 -2.2818477
000200 dd 46 35 be 25 c7 fa 3e b6 11 26 c0 de eb 6b bf
       -0.17702813 0.4898006 -2.594831 -0.9215678
000210 71 af d5 be 31 16 fc 3d d7 2d c5 bf a3 7d 35 3f
       -0.41735414 0.1230892 -1.5404614 0.7089483
000220 b9 06 4e 3e 95 46 2b 3e b1 69 10 be fc d1 ae 3d
       0.20119752 0.16726144 -0.14102818 0.08536145
000230 3a 25 2b 3e 27 47 7f bf 2f 9c 37 3f e5 94 35 c0
       0.1671342 -0.99717945 0.7172269 -2.8372128
000240 bc e7 1d be b5 d9 cd bf b6 db 64 bf 11 5f 7b 3f
       -0.15420431 -1.6082064 -0.8939775 0.98191935
000250 2a 83 c3 bf f7 69 fd be 9e ad 90 3f 6c 90 64 3e
       -1.5274403 -0.49494907 1.1302984 0.22320718
000260 9d 3b 82 3e f8 c7 b5 bf 38 07 d7 3e dc 91 7d 3f
       0.25436106 -1.4201651 0.41997695 0.9905069
000270 52 a2 b8 bf 68 14 53 3b 4e d7 df be 10 7d c0 be
       -1.4424536 0.0032208208 -0.43718952 -0.37595415
000280 bc a2 8b 3e ab 63 fd bf b0 51 27 3f 7d f0 95 be
       0.27272594 -1.9796041 0.6535902 -0.2928504
000290 12 82 f8 bf 49 31 80 be dd aa a0 be 5f 93 3d 3f
       -1.9414694 -0.25037602 -0.31380358 0.74052995
0002a0 84 34 93 bd f1 91 b9 3e 8f 5c a8 bf 48 81 37 3f
       -0.07187751 0.36244157 -1.3153247 0.7168164
0002b0 ca e2 37 be 7c 9e dc 3d cc dd 9e be 2f 5d 28 c0
       -0.17957607 0.10772416 -0.31028593 -2.6306875
0002c0 66 d8 48 3e f2 84 38 bf 1c b9 69 bd 82 e3 ae 3e
       0.196138 -0.7207786 -0.0570613 0.3415795
0002d0 82 99 7a 3e d4 28 eb bf 61 3f 1a 3f ee 6f 54 bd
       0.24472621 -1.8371835 0.6025296 -0.051864557
0002e0 63 47 2c 3e 78 10 0c 3f 35 fa 0e c0 c3 ac 12 3e
       0.16824107 0.5471263 -2.2340214 0.14323716
0002f0 1c 1d 54 be 1e d4 2c bf c1 b1 0d 3f 91 3f cf 3d
       -0.2071423 -0.67511165 0.55349356 0.10119546
000300 a8 c6 48 3e 68 bf e9 3e d6 3f c4 bf 9d 5e 1b c0
       0.19607031 0.45653844 -1.5331981 -2.4276497
000310 e0 70 75 3f e3 71 81 be a0 ed 81 bf fe f1 0b c0
       0.9587536 -0.252822 -1.0150642 -2.186645
000320 30 f4 0a 3d 94 10 af bf 02 10 1b c0 7a bd e5 bf
       0.03392428 -1.3676934 -2.422852 -1.7948449
000330 09 b5 23 bf c7 0c 7e 3e 15 c2 54 3f 6b 28 5e 3f
       -0.6394811 0.24809562 0.83108646 0.8678042
000340 af 2f 87 3e 57 45 92 bf e1 5b cd bf 7f 8e 38 3f
       0.26403567 -1.1427411 -1.6043664 0.7209243
000350 21 80 d4 bf f3 4b 36 3f 6d 88 26 bf 34 4e ad bf
       -1.6601602 0.7120964 -0.6505192 -1.3539491
000360 8e ca 19 3d 45 e0 a8 bf 44 6e f7 bd 9b e5 40 3f
       0.037546687 -1.3193442 -0.120815784 0.7535035
000370 c7 d0 11 bf ab f9 d3 3d cf ee 66 3f 3e 5d 26 c0
       -0.56959194 0.10350355 0.90208143 -2.599441
000380 06 ce 23 3e 38 9c dc bf 16 a0 29 3e ea d0 a1 bf
       0.1599656 -1.7235174 0.16564974 -1.264188
000390 41 79 d0 bf f2 9f 30 3f 26 a8 0e bf 6e 26 d0 3b
       -1.6287004 0.6899406 -0.55725324 0.0063522374
0003a0 6f c9 90 be 07 f8 0d 3f a7 40 b0 bf 89 d7 c9 bf
       -0.28278682 0.55456585 -1.376973 -1.5768901
0003b0 fa 50 e9 bf 35 14 47 3f 15 1b 0c bf 00 c0 94 bf
       -1.8227837 0.7776521 -0.54728824 -1.1621094
0003c0 64 fb 14 bd 11 bb ac be b9 fa 68 be 24 f3 5c c0
       -0.036372557 -0.3373647 -0.22751893 -3.4523401
0003d0 95 77 1f 3f 51 c5 bd 3e a2 3f c8 bf 4a 6d b7 be
       0.6229184 0.37064603 -1.5644419 -0.35825568
0003e0 6e 90 de 3d 74 63 6b 3e 51 16 5c bd 35 1b c4 bf
       0.108673915 0.22987157 -0.05373222 -1.5320803
0003f0 72 81 80 3d c2 37 01 c0 df 86 88 3d b7 3e 51 3f
       0.0627469 -2.0190282 0.066663496 0.8173632

l3.bias f4 [35]
000000 74 24 07 bf b1 fd 89 3e dc 50 f5 be 84 09 ab be
       -0.5279 0.26951364 -0.47913253 -0.33405697
000010 57 11 8e be 20 1d fd 3d 3d 41 a6 3e 80 fe 91 3e
       -0.27747604 0.12359071 0.32471648 0.2851448
000020 be ac 00 3e 93 e0 e1 be e9 58 9c be 8a 9a ad 3e
       0.12565896 -0.4411665 -0.30536583 0.33906966
000030 61 e0 15 3f 67 09 17 bf f2 d0 1b bd 88 a0 2d 3e
       0.585455 -0.5899872 -0.038041063 0.16955769
000040 a1 3d 4b 3e 22 a5 2c be be 95 56 3e 2f 0c c7 3e
       0.19847728 -0.16859868 0.2095556 0.38876483
000050 b6 bb 36 be 41 80 b9 be d6 7a e1 3c 5a 75 bf 3e
       -0.17845044 -0.36230662 0.027524393 0.3739422
000060 d9 6a d5 3e 83 8d bd 3e da ac cd 3e 5a ef d8 3d
       0.4168308 0.37022027 0.40170938 0.10592528
000070 65 d6 32 3f 1c 40 f1 3e c3 70 8c be ba 5d 08 be
       0.6985839 0.47119224 -0.2742978 -0.13317004
000080 a5 b6 46 3e a0 d6 53 be 5b 93 1f 3f
       0.19405611 -0.20687342 0.6233422
